models/Tabular/model.ckpt (torch, 587055 bytes, 41 tensors)

_backbone.linear_layers.0.weight f4 [256, 16]
00000000: 6512 053e 1ca7 2fbd 8a2a 0ebc 8d41 e9bd
00000010: 8aa1 623e 760e 0fbf 51df 823e 2e07 36be
00000020: 4b7f 373d 536b 053f 0a7e 2c3e 546a 7f3c
00000030: 1900 eabe 6df7 343c e915 b33d ff20 843d
00000040: de21 28be d2e4 f53e 1d9b 453d 59be 5abc
00000050: 0276 ed3d 8a7a 243e 2282 223d f281 85be
00000060: bf59 6d3f 87a0 e63e 3180 60bf fb70 72be
00000070: 51a6 d1be e3a8 76bf 2a11 4abb a23d 54be
00000080: 2c63 a43d 5412 9dbf 7b3c 243f 7c1f 823e
00000090: fed7 893e 0054 09be 62a0 b9be 0b19 db3b
000000a0: 75a7 c63d a402 303d 6300 32be b033 2fbe
000000b0: e5c9 9d3e e4cc 06bc c7b0 bfbe 0cb7 c5be
000000c0: 375e 6a3f 67a2 90be b70f 063f 877f 413e
000000d0: f01a 0f3d 543f 66be edef e5bd 7a32 6a3e
000000e0: a517 7bbe 598d 163f 6130 5d3e ea05 55be
000000f0: 6318 c53e 26f5 b8bd 4f29 74be 3f9f e13e
00000100: 54f6 bebc f735 aabe c8f5 263f b415 a13e
00000110: 3279 94be 67e9 643e 2c65 5cbd 3a74 64be
00000120: d387 f13e 07a3 983c bbdf fa3e 57b1 b33d
00000130: 50f6 0bbf 3182 ffbe 4c85 babe d0e3 2e3e
00000140: 0377 24bd 365e e23d 96f0 4cbd 365f 34be
00000150: 0f89 993d ddac c83e 2b44 e63c 13f2 9c3e
00000160: 6ee1 ccbe 46b2 a2be 3f6d a33e ce2c 18be
00000170: 4bdf 2b3f 5cb8 d3bb 6b8e 853d 26a7 b53e
00000180: 2b6f 47be 724f eb3c fb52 a03d 0964 2f3f
00000190: c4a9 1fbe b844 03bf 4150 3c3e e3e7 f43e
000001a0: 5532 fe3c 3b14 7bbe 914a 9dbe 638b 6b3e
000001b0: 180f 34be f02d 90bd 0dcf 5d3e c56a 463d
000001c0: b6c6 853e ca7a cebe 2050 b53e 2b6c 0b3f
000001d0: a518 403e ac2c 7d3e d854 c63e 276b 7ebe
000001e0: 8113 2dbd 110a 46be 6f41 60be 3211 d83c
000001f0: af39 d1be 7ab5 5d3e f28e 673e bb52 8c3e
00000200: 2783 5dbe 1d60 113f 063c 963e f8c0 a2be
00000210: 1855 6abe d73f 6dbe ce09 e6be f88b 1d3e
00000220: 2df7 09be b694 4f3e 40f3 823e 54a4 c93e
00000230: e939 693e 951b d43e 553b efbb b3aa 6dbe
00000240: 1f0a 8e3e 06b5 cb3e 7128 7b3e e495 cd3e
00000250: 70f6 b63e 51e6 a83e ef77 7ebe 0e20 9fbd
00000260: ed6c 6c3d bffa ac3e 3656 be3e 6847 853e
00000270: 18b5 bf3d 186f 293d 4412 86bd b65d 95be
00000280: 65fb 0abc 1287 0cbd fed8 083f ab8d b23e
00000290: 72e1 8bbd c0cc b33d 6a86 e33e 2be5 5dbf
000002a0: 6350 123f 7fe8 473e 1257 393d 9424 2fbe
000002b0: 090c 81be 4ac6 be3d 7645 09be b03f 933c
000002c0: f15f 11be 8c3c c03e c3fe e53e 0708 41bf
000002d0: fe8b 4c3d 0593 72be e973 81be aa2d 85be
000002e0: c5c4 823e c91a ccbe e7d2 5bbf adf0 53be
000002f0: 619b 12bc 07f5 10be 5410 80be 08e0 72be
00000300: b6aa 343d c6b8 103e 004c 8dbd 12a8 2ebe
00000310: 4440 f33e 3083 823d 7e6f 1fbe 6d56 4e3b
00000320: a872 b4be 829b 2bbf 1227 6f3e b54c 803e
00000330: 1efe 7cbe 7d29 0fbe b326 a1be f5bd 633e
00000340: f764 ecbd b5aa 183f e48d a83d 64d3 383f
00000350: c669 9dbe 8809 19be 7fb4 debe ba50 02be
00000360: 074e 7c3e cb77 1dbf fa26 0abe 0f5a 053f
00000370: 12af 85bd ca53 2bbd ee4e 6e3e d6b8 0a3f
00000380: 4695 623d 8fdf ec3e a1a5 803b f39b 4cbf
00000390: f6fa 4a3d 0332 fcbe d430 b3bd 9509 7a3d
000003a0: a06c cbbe e173 853e 1f8b e2be 2e20 8b3e
000003b0: 00ad 82be e5b1 06bf 8296 0abe bfd8 b6bd
000003c0: 3875 65be a012 28be 3612 01bf b0ba 13bf
000003d0: 4adb 21bf bb82 983d a2c9 0f3e 3411 dd3d
000003e0: ea1e b5bd d888 0a3f 1647 0dbf 0962 523e
000003f0: 0f4c 7a3d 3b18 86be 8007 c63e 34d0 f0be
0.12995298 -0.042883977 -0.008677134 -0.11389456 0.22131935 -0.5588144 0.25561002 -0.17776176
0.04479913 0.5211689 0.16844955 0.015589315 -0.457032 0.011045319 0.087444134 0.06451606
-0.1641917 0.4802614 0.04824363 -0.0133510465 0.11594774 0.1606237 0.039674886 -0.26075703
0.92715067 0.45044348 -0.87695605 -0.23675911 -0.40947202 -0.9635145 -0.0030832984 -0.20726636
0.08026728 -1.2271218 0.64154786 0.25414646 0.269226 -0.1341095 -0.36255175 0.006686335
0.09699909 0.04297127 -0.1738296 -0.17109561 0.30818096 -0.008227561 -0.37439558 -0.38616216
0.9155001 -0.28248903 0.5236773 0.18896304 0.0349378 -0.22485095 -0.11227403 0.22870818
-0.24520738 0.5880943 0.21600486 -0.20803037 0.38495168 -0.09031133 -0.23843883 0.44066808
-0.023310818 -0.33244297 0.6521878 0.3146187 -0.28998715 0.22354661 -0.053807423 -0.22309962
0.47173938 0.018632425 0.48998818 0.08774059 -0.5467272 -0.49904016 -0.36429822 0.17079091
-0.04015256 0.110531256 -0.050034128 -0.17614445 0.07496845 0.39194384 0.028108677 0.30653438
-0.4001574 -0.31776637 0.31919286 -0.14860842 0.67137593 -0.0064611863 0.06521305 0.35479087
-0.19476001 0.028724406 0.07828327 0.68512017 -0.15592104 -0.5127673 0.1838999 0.47833166
0.03102986 -0.24519436 -0.30720952 0.2300239 -0.17583883 -0.07040012 0.21661015 0.048441667
0.26128167 -0.40328056 0.35412693 0.54461926 0.18759401 0.24724072 0.38736606 -0.24845563
-0.04225493 -0.19339778 -0.21899961 0.026375387 -0.40864322 0.21651259 0.22613123 0.27406868
-0.21632062 0.5678728 0.2934267 -0.31787848 -0.22884023 -0.23168884 -0.44929355 0.15385425
-0.13473196 0.20271572 0.2557621 0.39383185 0.22775997 0.41427293 -0.007300774 -0.23209648
0.27742097 0.39786547 0.24527146 0.4015342 0.35734892 0.32988217 -0.24850439 -0.07769786
0.057721067 0.33785054 0.3717515 0.2603104 0.09360713 0.041365713 -0.06546453 -0.29173058
-0.008482789 -0.0343085 0.53456104 0.3487371 -0.0683011 0.08779287 0.44438487 -0.8667781
0.5715391 0.19522284 0.045249052 -0.17103797 -0.25204495 0.093151644 -0.13405403 0.017974705
-0.14196755 0.37546194 0.4492093 -0.75402874 0.049938194 -0.23688896 -0.25283745 -0.260114
0.25540748 -0.39864185 -0.85868686 -0.2069728 -0.008948178 -0.1415597 -0.25012457 -0.23718274
0.044108115 0.14132985 -0.068992615 -0.17056301 0.47509968 0.06372678 -0.15569875 0.003148462
-0.35243726 -0.6703416 0.23354748 0.25058523 -0.24706313 -0.1398067 -0.31474838 0.22240432
-0.11542695 0.5963548 0.082301885 0.72197556 -0.3074476 -0.14945042 -0.43497083 -0.12726107
0.2463914 -0.61510915 -0.13491431 0.52090544 -0.06527533 -0.041827954 0.23272297 0.5418829
0.05531814 0.46264312 0.0039259945 -0.7992546 0.04955574 -0.49256906 -0.087495476 0.061044294
-0.39731312 0.2606497 -0.44246766 0.2717299 -0.25522614 -0.52615196 -0.13533977 -0.0892806
-0.22407997 -0.16413355 -0.5041841 -0.5770674 -0.63225234 0.0744681 0.1404176 0.10794297
-0.08843787 0.54115057 -0.55186594 0.2054521 0.06110769 -0.2619036 0.38677597 -0.47033846

_backbone.linear_layers.0.bias f4 [256]
00000000: 9953 37be fd05 6c3e 789e 4e3e 9cc9 323e
00000010: 409b bebd ddae 1b3e 8f37 69be 4959 ba3d
00000020: 3e68 89bc b0ea 3fbe d0df 3ebe 5cec 85be
00000030: 30c3 3a3d 4244 a5bd c3f8 eabd 54fe 573e
00000040: d670 b6bc 8e4c 9a3d 608c 5cbd 9acb 143e
00000050: 1a92 a63d 46a4 113e fcc2 303d 56e6 33bd
00000060: 3ad4 773e f48f 4dbc 00ff 34be 8981 723d
00000070: 6597 27bd 7fd7 2ebe 70e8 213c 9e7c 80bd
00000080: 7265 acbd 6c8f fbbd aaa3 f7bd a3cb f7bd
00000090: c763 f53c 6191 783e fd6b 18be b0be fdbd
000000a0: 7ed7 1ebe 5cc6 1ebc 03c5 9bba 8fd3 3dbe
000000b0: 2d74 c13d 4c81 68be ac64 603e e60a 233d
000000c0: d946 fabc 24d5 cebd 97f5 bc3d a994 1d3e
000000d0: aeea 0fbe 5dd9 85bd 0742 583e 4e94 ddbc
000000e0: d402 56be aabd 0dbe d058 dbbb 0bb3 48bd
000000f0: fcb9 d8bd 9436 28be 919e 813d 7e84 163e
00000100: 4d42 623e fe2a 93bd 1407 c13d e098 6fbe
00000110: 80ad 113e 24de 3c3e 61f1 da3d 1018 eabd
00000120: 40e7 533e 1739 70be f1d5 83bd d2da a5bd
00000130: 89bf 88be e329 bebd a20d 2dbe 1df6 bf3d
00000140: f39b cbbb 6573 063e b4a5 3bbd 9d53 573e
00000150: 1fcb bebb a25c 403e 8c87 423e d1d6 72be
00000160: 9201 38be 6039 013e e115 7a3e 1246 4ebe
00000170: 4813 4238 f82d ccbd 01e1 5c3e 69cb 573e
00000180: b9af 2c3e a97d 033e 24f1 45bc 0226 593e
00000190: 9e2f c7bd 7062 ca3c 64cd b1bd ec3c 25be
000001a0: d8d0 eabd 73d2 a63d c543 51bd 1e28 3bbe
000001b0: 349f 46bd d1f0 193d 424e 3bbe 98d9 013e
000001c0: 80ba 56be 93f8 dd3c e7f8 53be 030c 5bbe
000001d0: 8838 f9bc 689d 793e 3bce 953e c4bf a13d
000001e0: 45ed 1c3e bb7d 1dbe 7c00 c63d b42a 2d3e
000001f0: 2bc3 87be def2 3fbe 2a44 c73d 3e43 fd3c
00000200: 3aa8 33be b0fa 50be 226c 2f3e 1e1c b43c
00000210: 1368 67ba 309d 7abe 5d3c 593e 82ba 09be
00000220: 4a89 013e 9444 14bd 9d4d 15bc 273a 1f3e
00000230: cb90 8fbd 3c7b c3bd 2525 2b3e 0160 51be
00000240: bb02 823d 04d5 aebd 0abd e1bd 7af0 313e
00000250: 61d9 803d 1f87 66be c7c1 7a3e be34 ebbd
00000260: 82b7 6c3e 9d1a a5bd 7c0a 733e 3a45 4b3d
00000270: 8ef7 1f39 6209 bf3d 3014 d1bc 452d 04be
00000280: 43d1 f83d 5475 3d3e e5ac 1dbd 94f4 883e
00000290: 870e 1a3c 6c57 00be 7080 1ebe c836 173e
000002a0: a2e0 c7bd 392a 1c3e 8caa 89be d020 f4bc
000002b0: c524 47be b3bf 883d 4e82 393e c8a2 0d3e
000002c0: 4792 95bd e748 5abe 5acc 1bbe 39dd 1cbe
000002d0: 3e3a 693e 9e21 0cbe 8aac d63d 421a 353e
000002e0: cef5 983d 9e51 5abe 75b4 0fbd bcb0 c0bd
000002f0: 4636 1f3e 1113 51bd 2e43 f2bb 9783 5a3e
00000300: da43 513d 54b3 d63d ca1b 7dbd 38ad 233e
00000310: 4611 0d3d 0985 71bd f228 6b3d 9b78 68be
00000320: 3726 ec3a d392 033e aa7b 62be 7d38 1ebe
00000330: d825 353e 171b 773d 51ed 02bc 69b3 e7bb
00000340: 23cc 17be 5a04 933e f20e 02bd 2400 cbbd
00000350: 191e da3d 8081 66be 663f 43bd 2f57 283c
00000360: 8115 c8bd 049f 143e 475d 32be 042e 7ebd
00000370: dde3 efbd 94a3 573e 86ed d83d c077 51be
00000380: dc60 bd3d 74bc eb3b 70a1 663e 5d60 e83d
00000390: 087e 30be 98e5 503e 7794 79bd 9536 82bd
000003a0: 52dc d03d 93fe 6a3e 650d f33c c31d 65be
000003b0: e801 e5bd 4a36 813e aafa c3bd c086 0cbe
000003c0: 6012 2fbe ef13 2dbe 8d67 1fbe b3d8 7c3d
000003d0: 6cf2 233e 2676 803e 8418 223e debd d43c
000003e0: 4eac e43d f1b4 013e 0bd2 38be 82b3 e63d
000003f0: 6293 26be 74cb 213e 5aeb d6bd 3c1a 983d
-0.17902984 0.2304916 0.20177639 0.1745972 -0.09306955 0.15203424 -0.227751 0.09099061
-0.01677334 -0.1874187 -0.18640065 -0.2615689 0.0455963 -0.0806966 -0.11473229 0.21093112
-0.022270601 0.07534133 -0.05384481 0.14530793 0.081333354 0.14222822 0.0431547 -0.043920837
0.24202052 -0.012546528 -0.176754 0.059205566 -0.040915865 -0.17074393 0.009882078 -0.06273769
-0.08417787 -0.12283215 -0.12091763 -0.120993875 0.029954804 0.24274208 -0.14884944 -0.123898864
-0.15511891 -0.009690847 -0.0011884276 -0.18537734 0.09445987 -0.22705573 0.21913403 0.039805315
-0.03055136 -0.10099247 0.0922653 0.1538874 -0.14054367 -0.065355994 0.21118937 -0.027048256
-0.20899516 -0.13841882 -0.006693937 -0.048998874 -0.10582349 -0.1642707 0.06329072 0.1469898
0.22095604 -0.071859345 0.09425178 -0.23398161 0.14226341 0.18444115 0.106905706 -0.11430371
0.20693684 -0.23459278 -0.064372905 -0.08098377 -0.2670863 -0.09285333 -0.16899732 0.09373114
-0.006213659 0.13129957 -0.045812324 0.2102799 -0.0058225538 0.18785337 0.1899702 -0.23714758
-0.17969349 0.12619543 0.24422409 -0.20143917 4.627116e-05 -0.09969705 0.21570207 0.21073689
0.16863908 0.12840904 -0.012081418 0.21205905 -0.09725879 0.024705142 -0.08681753 -0.16136521
-0.11465615 0.08145609 -0.05109002 -0.18277022 -0.04849167 0.037583176 -0.18291572 0.12680662
-0.20969582 0.027096068 -0.20700417 -0.21391301 -0.030422464 0.24376452 0.29258904 0.078979045
0.15324886 -0.15379994 0.09668061 0.16910821 -0.2651609 -0.1874499 0.09729798 0.030915853
-0.17544642 -0.2040813 0.17131093 0.021986064 -0.0008827459 -0.24474025 0.21214433 -0.13450053
0.12650028 -0.036198214 -0.009112743 0.15549527 -0.07010039 -0.095449895 0.16713388 -0.20446779
0.06348177 -0.08536723 -0.110223845 0.17376891 0.06291462 -0.22512482 0.24487983 -0.11484669
0.23116878 -0.08061717 0.23734468 0.049626566 0.00015255643 0.093279615 -0.025522321 -0.12907894
0.121492885 0.18501788 -0.038494963 0.26749098 0.009402878 -0.12533349 -0.15478683 0.14766991
-0.09759642 0.15250482 -0.2688793 -0.029800802 -0.1944762 0.06677189 0.18116114 0.13831627
-0.07303291 -0.21316873 -0.15214673 -0.15318765 0.22776124 -0.13684699 0.10482128 0.17685798
0.074687585 -0.21320197 -0.035084207 -0.094087094 0.15548047 -0.051043574 -0.0073932623 0.2133926
0.0510901 0.10483423 -0.06179408 0.15984046 0.0344403 -0.058964763 0.057412095 -0.22702257
0.001801676 0.12848978 -0.22117487 -0.15451236 0.17690217 0.06032857 -0.007991151 -0.007070948
-0.14823966 0.28714257 -0.031752534 -0.09912136 0.10650272 -0.22510338 -0.047667883 0.010274692
-0.097697265 0.14513785 -0.17418395 -0.062055603 -0.11713383 0.21058494 0.10592179 -0.20455837
0.0924699 0.007194096 0.22522521 0.11346505 -0.17235577 0.20400083 -0.060932603 -0.06358067
0.10198273 0.22948675 0.029669473 -0.22374634 -0.11182004 0.25236732 -0.09569295 -0.13723278
-0.17096853 -0.16902135 -0.15566845 0.061730098 0.16010445 0.2509014 0.15829664 0.025969442
0.11165677 0.1266668 -0.18048875 0.11264707 -0.1626716 0.15800267 -0.104941085 0.07426879

_backbone.linear_layers.3.weight f4 [128, 256]
00000000: 467c bcbd 3682 a1bd 3d36 813b 8b01 4fbd
00000010: e097 6c3c 8c3b f43c e1b9 40bd b34d e53c
00000020: 2293 f83d 4f5e 553d d656 f3bd 3631 ed3d
00000030: d794 21bd 3cc8 a33d 6cb4 28be 5f56 8bbd
00000040: e67b 073d 81a8 7abd 28c6 643d 2010 febd
00000050: 29f1 13bc 29ec aabd 922c 28be eb85 d6bb
00000060: 08ae fcbd ad35 dabd a841 3f3d b364 2cbd
00000070: f9cd 233d e018 de3d ac92 9abc 0d24 08bd
00000080: b0e2 883d 7bd9 0d3d 3d4a 2b3d 35df 6fbb
00000090: 0544 d7bd 545c 25be 11b9 ac3d 76d0 91bd
000000a0: 0704 ddbc 1712 bf3c 0e8f efbd c100 49bd
000000b0: 1e7d a03d ba8e 5d3d 9e77 99bd 2b80 15be
000000c0: 3970 b43d 2ba6 6c3e 1c94 89bd 9d97 e83b
000000d0: d20e 00be d7b8 40bd d0ed 003d 5c76 9b3b
000000e0: 78d2 2d3a 9bdd fdbb d1a7 0c3d 2832 65bc
000000f0: a277 dfbd 4b95 973d c028 d43d 98c6 d23c
00000100: 349f 263d 0726 09bd 1e6b c83c b983 4fbb
00000110: f730 e5bd c56a e8bc 02c7 01be 6a9f 0bbe
00000120: 81b0 7a3d 731a d03d 3d91 9dbd 7461 a6bb
00000130: 1492 a5bd 8b36 b6bd ea8f 8b3c 911c 5f3d
00000140: 41fd cfbd 06c5 b0bb c3b7 ccbb 682d 263e
00000150: fdf8 d4bc 8e2f 62bd bd96 f73d 0e25 0ebe
00000160: f86a b43d b63c 9b3d e3c7 cd3d 4c3e 8abd
00000170: c7ff 08bd 79bf 3abd 83fb b03d 0ecd d7bd
00000180: efad 12be e6a1 cdbd 4d53 a8bd 76f5 dcbd
00000190: a31d 5c3d 2f7c 67be 493e adbd d250 d8bb
000001a0: 51ff 44be cb8b 35be e36f 12bc ddc8 8a3d
000001b0: 409e b2bd 0804 6d3d 33a2 183e 4aa8 9b3d
000001c0: eea7 fb3c f7ba 03be 575a b2bc 39a6 0c3e
000001d0: 939e 62bd f4fb 043c effb 5cbc 17ac 46be
000001e0: 8534 abbd fe03 4a3d 656d 99bc 7b6a bdbd
000001f0: a723 84bd 3ba2 36bd 8cb2 fcbd ef58 a03d
00000200: e021 6d3c e63a 93bd 2e21 073d 9ee1 b7bd
00000210: 07d2 d6bb e423 513d db30 c13d e0b0 d43d
00000220: 687a debd 5e1a 243e a76c cb3d 83e0 e9bd
00000230: b6ef 963d 92bb 79bd 375b 61bb 8a0d c2bc
00000240: 18b1 553d 602e 2cbc b6bd 11be b8d7 2a3d
00000250: 8e47 8cbd 71ce d73d ec40 f3b8 eff5 93bd
00000260: b735 d5bd f5fc 873d 5cb1 5dbd 38be 44be
00000270: 6177 0b3d beef 2dbc 07ce 28bc aed5 99bb
00000280: 64b3 78bb a1c3 60bd 6661 e0bc 1ae4 35bd
00000290: a91d b13c 4939 153e ec1f 6bbd 3c95 2b3e
000002a0: a8f9 34bd e017 76bd ae7e 5f3d 03e0 19be
000002b0: c14f 963d bd20 e0bd b7ba 82bd 18b7 15bd
000002c0: 629a 513e 64cd 583e 31eb 2f3d 5d29 05bc
000002d0: e7cc d8bc 4b9e 9bbd 9e2e 783d 63db ad3d
000002e0: dd20 58bd d849 fe3d bee8 b73d 2455 d5bd
000002f0: 8e2b 05be dae2 e8bc c015 d9bb ea61 d0bd
00000300: 70b2 78bd d4d9 babc e56d 86bd 604a 3fbb
00000310: 2247 373e 7358 cabd aec6 26be 4638 0dbd
00000320: a9ea 173c 6b0e 8b3d 15d4 d73c 3d87 c9bc
00000330: 9e16 84bd 6a0e ffbd 2c23 183d ef62 053e
00000340: 41b5 b7bd 8037 d43d f235 55bd bb04 4bbe
00000350: 2b0f 52bd 91e3 5fbd 768a fabd f15b 18bd
00000360: 7590 b7bd 1606 98bd 3d5d 123d 180b 203e
00000370: 3f84 5fbd 72d1 7c3d c806 043e a5f5 55bd
00000380: 8fab 0ebe e4d3 8d3d f41e a53c 2637 8fbc
00000390: 3516 f43d 2aa2 173e 258f 2c3d ac0d 5abc
000003a0: e7e7 2c3e d267 2fbd 4ae5 883b 32fb a0bb
000003b0: 6ab2 d8bc 2eaf b2bd 452c d4bd 1e8a f1bc
000003c0: e642 8b3c 8bfd ef3d 7ede bf3d 4882 bcbd
000003d0: ee9e 66bd 8574 99bb a56a 4bbd 4ded b53d
000003e0: 488f e8bc 41db 173e 9e32 37bd 5507 6a3c
000003f0: 370f aebd 94d6 d7bd 72da 313e 3d56 f23d
-0.09203391 -0.07886164 0.0039432333 -0.05053858 0.014440507 0.02981355 -0.047052268 0.027991151
0.12137438 0.052091893 -0.11881797 0.11581652 -0.039448585 0.07997176 -0.16475075 -0.06803583
0.033077143 -0.061195854 0.05585304 -0.12405419 -0.009029665 -0.08345825 -0.16423252 -0.006546726
-0.12337881 -0.10654769 0.046693474 -0.04208822 0.039991353 0.10844588 -0.018868767 -0.033237506
0.06683862 0.034631234 0.041818846 -0.0036601548 -0.105110206 -0.16148502 0.08433736 -0.07119839
-0.02697946 0.023324056 -0.116972074 -0.049072985 0.07836364 0.054091193 -0.07493518 -0.14599673
0.08810467 0.23110263 -0.06717703 0.007098152 -0.12505654 -0.047051277 0.031476796 0.004744334
0.00066307886 -0.0077473647 0.03433973 -0.013989009 -0.1091149 0.07401522 0.10359335 0.025729463
0.04067917 -0.03348353 0.02446514 -0.0031664206 -0.1119098 -0.028371224 -0.12673572 -0.1363503
0.061203483 0.10161295 -0.07693718 -0.0050775353 -0.08084503 -0.08897122 0.017036397 0.054470602
-0.10155726 -0.005394581 -0.006247492 0.16228259 -0.025997633 -0.055221133 0.12089298 -0.13881323
0.08809465 0.07579939 0.10047891 -0.067501634 -0.033447053 -0.04559276 0.08641722 -0.10537158
-0.14324163 -0.10040645 -0.08219013 -0.107890055 0.0537392 -0.22605966 -0.084591456 -0.0066014314
-0.1923802 -0.17729108 -0.008937809 0.06776593 -0.0872159 0.057865173 0.14905624 0.07600458
0.030719724 -0.1286429 -0.021771593 0.13735284 -0.05532701 0.008116711 -0.0134878 -0.19401585
-0.08359627 0.049320213 -0.018728921 -0.09248825 -0.06452113 -0.04458831 -0.123387426 0.07829463
0.014473408 -0.07188968 0.032990627 -0.0897858 -0.006555799 0.05105962 0.094331466 0.10385299
-0.10863191 0.16025683 0.09932833 -0.11419775 0.0736994 -0.060969897 -0.0034386644 -0.023688097
0.052170843 -0.010509104 -0.14232525 0.04170963 -0.068495855 0.105374224 -0.000115992356 -0.072246425
-0.10410636 0.066400446 -0.05412422 -0.19213188 0.034049395 -0.010616241 -0.010303027 -0.004694662
-0.0037948722 -0.054874066 -0.027390193 -0.044406988 0.021620588 0.14572634 -0.05740349 0.16756147
-0.044183403 -0.060081363 0.05456417 -0.1502686 0.073394306 -0.10943744 -0.06383269 -0.036551565
0.20469049 0.211721 0.042948905 -0.008127538 -0.026464893 -0.07598551 0.060591333 0.0848911
-0.052765716 0.12416428 0.08979939 -0.1041663 -0.13004896 -0.028428484 -0.0066249073 -0.101749256
-0.060717046 -0.022808947 -0.065639295 -0.0029188618 0.17898229 -0.098801516 -0.16286728 -0.034477495
0.009272256 0.067898594 0.026346246 -0.02460062 -0.064496264 -0.12453921 0.037142918 0.13026021
-0.08970118 0.10362148 -0.0520534 -0.19826023 -0.051283997 -0.054660384 -0.122334406 -0.037197057
-0.089631 -0.07423036 0.03573345 0.15629232 -0.05456948 0.06172318 0.12893212 -0.052236218
-0.13932632 0.069251806 0.020156361 -0.017482352 0.11918298 0.14807954 0.0421287 -0.013308924
0.16885339 -0.04282362 0.004177724 -0.0049127573 -0.026452262 -0.08724819 -0.10360006 -0.029484805
0.016999673 0.11718281 0.09368609 -0.09204537 -0.05630391 -0.0046830797 -0.04966225 0.08883152
-0.028388634 0.14829732 -0.044726007 0.014283975 -0.08498996 -0.105389744 0.17368487 0.11832855

_backbone.linear_layers.3.bias f4 [128]
00000000: 6f62 bebc e28f 103d 3833 ecbc 6d85 1cbd
00000010: e11f 2abd bf2b a6bc 7896 ecbc 6498 083d
00000020: 5a77 8b3c aa7d 243c da06 9c3b f9e2 6e3c
00000030: 9a16 3e3d fbde 1ebd 5b5a f83c 6bf7 133d
00000040: 9626 47bd dc91 38bd 7bab 7ebc 5461 b03c
00000050: d23b 1d3d 5735 0e3d 6486 103d 77b4 b3bc
00000060: 8782 a83b b18a 333d c564 12bd 0e04 74ba
00000070: c0e6 ce3c ff20 8f3c bd6b f73c 1271 3fbc
00000080: cdff fa3c b8ee 2b3d eb4d febb 6fe8 8c3b
00000090: f07d a8bc 95a5 6ebd f41c 933d a15f 84bc
000000a0: 343b 403d 217e 37bd 91fb fa3a 9034 263a
000000b0: d0b1 e13c 17b7 853c 04c1 e8bc 005b ab3c
000000c0: 6344 f1bb 2d1b 1c3d 2a92 8d3c 2f45 403d
000000d0: b12c abbc a755 863d 8084 23bd 000d 473c
000000e0: 3746 f53b 9910 e9bb ed12 7d3d 5667 49bd
000000f0: 972d 67bd 4b3c 21bd 5fd7 003d dd00 5a3c
00000100: e436 02b9 fbec df3c f7db 073d 1379 85bd
00000110: e544 7bbd 4360 0abd 68e6 8abc 708f 1abd
00000120: e680 c03c 1609 2b3d 5f96 4bbc 5eb6 e43c
00000130: 014f 29bd 011d f73c 0996 adbc 02af 24bc
00000140: 3ab3 fe3a 5c8f 923d f006 95bd c11c 5abc
00000150: 5882 b03c f84a 913c d4ad f4bc ba7a a0bc
00000160: b6f1 ec3c 682e 29bd 3b21 22bd f04a 25bd
00000170: f1e9 bcbc c954 b53b 165d db3b cd61 2f3d
00000180: a067 da3c 1a3c 89bd 867a 84b9 7e1b 153d
00000190: dc1d af3c b488 343d f563 76bd 65f0 163d
000001a0: 3e6e aa3d 180d 3e3b b1d3 2e3c c194 17be
000001b0: 66d6 07bd cd3d 0fbc 4ac6 bdbc a682 f03c
000001c0: 8d55 92bc 24c8 09bd 5ce9 3ebd f393 453c
000001d0: 6975 21bd 0a42 143d f946 ab3c 8193 b23c
000001e0: a89d ac3c 8c86 aa3d 071b 34bc 51c9 333d
000001f0: 3b42 b53d 0610 463d c655 4e3c e1ea 9f3c
-0.023240296 0.035293467 -0.028833017 -0.038213182 -0.04153431 -0.020284532 -0.028880343 0.033348456
0.017024685 0.010039726 0.004761559 0.014580482 0.046408273 -0.03878687 0.030316522 0.036124628
-0.048620783 -0.045060977 -0.015543814 0.021530785 0.038387127 0.034718838 0.035284415 -0.021936638
0.005142513 0.04383344 -0.035740633 -0.00093084655 0.025256515 0.017471788 0.03020274 -0.011684673
0.030639553 0.041975707 -0.0077607534 0.004300169 -0.020567864 -0.05826338 0.07183257 -0.01615888
0.04693146 -0.04479802 0.0019148459 0.000634023 0.027550608 0.016322656 -0.02841235 0.020917416
-0.0073628887 0.038111854 0.01728161 0.04694098 -0.020895334 0.06559306 -0.039921284 0.012149096
0.007485177 -0.0071125743 0.061785627 -0.049170814 -0.056439962 -0.03936414 0.031455394 0.01330587
-0.00012418214 0.02733468 0.03316876 -0.06517234 -0.061345 -0.03378321 -0.01695557 -0.03773445
0.023498964 0.041756712 -0.012425988 0.02791899 -0.04133511 0.030165197 -0.021189706 -0.010051491
0.0019432076 0.0715625 -0.07276714 -0.0133125195 0.021546528 0.017735943 -0.029868044 -0.01958977
0.02892385 -0.041304022 -0.039582472 -0.04035467 -0.02306077 0.005533789 0.0066944463 0.04281788
0.02666074 -0.067009166 -0.0002526829 0.03640317 0.021376543 0.044075683 -0.06015392 0.03685035
0.08321808 0.0028999504 0.010670588 -0.14802839 -0.03316345 -0.008742762 -0.02316584 0.029359173
-0.01786306 -0.033638135 -0.046609268 0.0120592 -0.03941861 0.036195792 0.020907866 0.021798851
0.02107127 0.08326444 -0.010992772 0.043893162 0.08850523 0.048355125 0.012593692 0.019521179

_backbone.linear_layers.6.weight f4 [64, 128]
00000000: b455 613d f0e3 3c3d 1841 203e db1f 4a3e
00000010: afd3 8f3d 34a1 393d bfa2 c2bb 0a92 c43d
00000020: ca0b d5be d7a2 f3bd 16ea 853d 8349 06be
00000030: c655 2bbe 6b53 f9bd c6ef b9bd 6886 dc3d
00000040: 766e 153e 3574 003e cc75 4ebe 2df6 f1bd
00000050: df08 12bd a9b1 783d d4c0 39bb e882 dc3c
00000060: 03a4 bbbb a0da 7dbd c2b1 653e 743f 0abd
00000070: b7ab f3bc f163 18bd 495d d1bd a8a8 813d
00000080: 3536 523d e3c0 54be 5f82 c33d bbb9 b6bc
00000090: 3dbc 0d3d 9615 73be 3951 3d3e 3ac1 b9be
000000a0: 7eda 3abe 6e9c 2fbe 8a3c 96bd b9cd 8e3d
000000b0: ad4a 8d3d 6faa 913e 04db a8bd 3a08 533d
000000c0: 3707 80be bfd3 35bb 07e6 b2bd cc5a d33c
000000d0: 505b d63b c39d d0bd 55e8 293e 7d5f 7bbe
000000e0: 60af fcbc 0be9 833d c565 373e eee5 e6bd
000000f0: b244 69bc 23d9 403d 4a22 a8bd 2f7d a43e
00000100: 8cd6 98bd 7367 473e 8545 923e 592a bd3c
00000110: 199b 173e cc4c 1b3d bf41 23be 5257 20bb
00000120: 4d86 32bd 2dea 143d dede 343c 62ab 723d
00000130: bf94 63bd 87d9 27bd 87e9 35bb 2a31 e03d
00000140: 22dd f03c 411f cabd 0353 273e d430 1c3d
00000150: 4ed9 03bc 8cb9 283e 3f6d ecbd 27c8 8cbd
00000160: 27a2 7d3c af6a d13b e796 e03d e3fc aebd
00000170: da99 123e b973 c13d b1f3 1cbe b200 d1bc
00000180: 7fef 87bd 9441 693e 5c33 82bc 826d f7bd
00000190: a5de 5cbd 4288 a8bc bb5e 053d b661 6cbc
000001a0: 233e c2bd 5960 3bbd e66c 543e c2fc c03d
000001b0: 5693 093e f67c d5bd 12e8 9dbd 6de9 01be
000001c0: a921 8cbd a9b9 cbbd 9d8c 8c3d 5ff8 803d
000001d0: 9c67 9e3d d2c8 d53d 4e08 233e bdb0 debc
000001e0: a860 f33d 24c4 8cbc bc35 0ebd 500a 9cbd
000001f0: 4962 8d3d 77d1 8bbe f13f 86bd 5d37 54be
00000200: 0647 953d 4047 b53d 8915 07bc 232b 203e
00000210: 2770 923d a60c bebd 0fb4 00be 7c79 3ebc
00000220: 4d2f 2cbe 998f 643d cafc 223c 5e22 75bd
00000230: c9af 823e acac 13bd 41f6 bbbd 21bb 793d
00000240: 54a0 163e 68d8 d23d 54eb 0bbd 1089 f23d
00000250: 9ccd a63d 744e cebd ed79 79bd 67cc b43d
00000260: 4581 13be 6e21 b3bd 9380 573d cab3 ec3d
00000270: 4c35 5f3d cba6 2d3e c155 ae3d e3b8 07be
00000280: 7ff7 043b e2a0 593c c778 193d 520a 373d
00000290: b7a5 843c d6ea aa3c 7a52 0fbe defb b03c
000002a0: 898d 5e3e 4f3e 8bbd dacb 5fbd 2be3 0c3e
000002b0: 1792 d93c ee20 0ebe 5119 e93b c732 1bbd
000002c0: 53f7 9dbe 65ee 2cbe 4614 733c c7bd ddbc
000002d0: 015d 953d 4e5d 3abe 111d 7bbe 42ee 7cbe
000002e0: 34f9 6f3d f52e 3abd 39f9 5b3d f1e9 79bd
000002f0: ffed ac3d b3e5 0f3d 7138 6ebd 2280 923c
00000300: fa99 1bbe 1611 383e 5f1e cb3c a03f 36be
00000310: e274 633e 7ee8 b43d 6a64 b03d 3c6c e0bd
00000320: 8829 acbe 5739 f6bb b4cb 7cbe 5557 093d
00000330: 2995 e53e 1db8 58be cc55 113e f5da 9a3d
00000340: 98fd 0c3e a796 b53b 956a 2dbe 3e51 c13d
00000350: 9f3b b13d 9dd4 d0bd bd86 c7bd 9176 243d
00000360: caf3 9abd bd66 b03d fd1d 29bd a243 cc3c
00000370: fdcb cabd 37b2 1c3d c373 143e 8d59 cb3d
00000380: 7e10 08be 4e27 21be d323 803d 2d9d edbd
00000390: 2cc5 623c a0a4 983d a053 c53d 94c2 c0bd
000003a0: 7a65 13be f87a 03be 0882 81bd 3c30 60ba
000003b0: 9ad8 523e 193f 973d 106e f9bc 76d2 16bb
000003c0: 0a13 553e 84e7 fb3d ad99 873e 57c7 753c
000003d0: 7725 d9bb 03c4 613e 850c 18be 4ceb a6bd
000003e0: af5c 423e 5b0c 9ebd 6e73 0c3e f556 ae3d
000003f0: db10 bcbe ffc4 00be 3662 92be 0cec 8e3d
0.055013373 0.046115816 0.15649831 0.19738714 0.07022797 0.04531975 -0.005939811 0.09598167
-0.41610557 -0.118962936 0.06538789 -0.1311398 -0.16731939 -0.12174114 -0.09078936 0.107678235
0.14592919 0.1254433 -0.20162123 -0.118145324 -0.03565299 0.060716305 -0.0028343694 0.02691789
-0.005726339 -0.061976075 0.2243109 -0.03375192 -0.029744966 -0.037204687 -0.10222871 0.06330997
0.051321227 -0.20776705 0.09546351 -0.02230536 0.034603346 -0.23738703 0.18488015 -0.36280233
-0.1824741 -0.17149517 -0.07335766 0.06972832 0.06899009 0.28450343 -0.08244899 0.051521517
-0.25005504 -0.0027744619 -0.087352805 0.025800131 0.006541647 -0.10186341 0.16592534 -0.24548145
-0.030845344 0.06440934 0.17909916 -0.11274324 -0.01423757 0.047082078 -0.08209665 0.32126758
-0.074627966 0.19473056 0.28568664 0.023091482 0.14805259 0.037915036 -0.15943049 -0.002446611
-0.04358511 0.03635614 0.011039464 0.059245475 -0.055561777 -0.040978935 -0.0027757601 0.10946877
0.02940232 -0.098692425 0.1634026 0.038132504 -0.008047415 0.1647703 -0.115442745 -0.068741135
0.015480555 0.0063908915 0.10966282 -0.08544328 0.14316502 0.094459005 -0.15327336 -0.025513027
-0.06637477 0.22778922 -0.01589363 -0.12081434 -0.053923268 -0.020572785 0.032561045 -0.014427593
-0.09484508 -0.04574618 0.20744666 0.0942321 0.1343511 -0.10424225 -0.077102795 -0.12686701
-0.06842358 -0.09947521 0.06862757 0.06297373 0.07734606 0.10438694 0.15921137 -0.027183885
0.1188367 -0.01718337 -0.034719214 -0.076191545 0.06903512 -0.27308246 -0.065551646 -0.20724244
0.07288937 0.088514805 -0.0082448805 0.15641455 0.071502976 -0.09279756 -0.12568687 -0.011625644
-0.16814919 0.055801008 0.009947965 -0.05984723 0.25524738 -0.036053345 -0.091778286 0.060969476
0.14709598 0.102951825 -0.034159973 0.11842549 0.081446856 -0.100735575 -0.060907293 0.08828049
-0.14404781 -0.087466106 0.052612852 0.115577295 0.054494187 0.16958158 0.0851245 -0.13254122
0.002028912 0.013282986 0.037468698 0.044687577 0.0161923 0.020863932 -0.13996306 0.021604475
0.21733679 -0.06798994 -0.054637767 0.13758533 0.026558919 -0.13879749 0.0071136137 -0.037890222
-0.30852756 -0.16887815 0.0148363765 -0.027068032 0.0729313 -0.18199655 -0.24522807 -0.24700263
0.058587268 -0.045454938 0.053704474 -0.06101412 0.08443832 0.035131168 -0.058159295 0.017883364
-0.15195456 0.17975268 0.024794756 -0.17797709 0.22212556 0.08833407 0.086129025 -0.10958144
-0.33625436 -0.0075141597 -0.24687082 0.033530552 0.44840363 -0.21163984 0.14192885 0.07561294
0.13768613 0.005541641 -0.16935189 0.09439324 0.0865395 -0.10196803 -0.09742496 0.040152136
-0.0756603 0.08613346 -0.041288365 0.024934594 -0.09902189 0.038255896 0.14497285 0.0992919
-0.13287541 -0.1573765 0.06256833 -0.116022445 0.013840955 0.07453275 0.09635091 -0.09412113
-0.14394179 -0.12839878 -0.063236296 -0.00085521094 0.2059044 0.07385082 -0.03044799 -0.0023013628
0.20808044 0.123000175 0.26484433 0.01500114 -0.0066267806 0.22047429 -0.14848526 -0.08150348
0.18980668 -0.077172 0.13715908 0.085126795 -0.3673161 -0.12575148 -0.28590554 0.06978616

_backbone.linear_layers.6.bias f4 [64]
00000000: 74c1 7c3c c6f6 593d 4e18 50bc 04fe 1bbd
00000010: e42c aabc 7c76 833e 41c3 54bd b96a 933d
00000020: 7c76 e33d 9291 b7bd 23a7 823d 1a64 b63c
00000030: 8291 86bd 6a46 273d ddcd 633d 634b f4bc
00000040: 1137 2e3d 478a b9bd 85b7 e9bd ef2f 523d
00000050: 6d30 923c eec8 df3c 3fed 313e c3f5 e73b
00000060: 7c3f d5bd 80b8 b3bd 9f65 203d 6093 cfbd
00000070: a04b 863d 987c 63bb 2624 293b 4fde 05bd
00000080: ceaf 79bc dfb7 1c3d e66a 02bb 40a5 163d
00000090: 7cc1 353e 9889 1fbc 03be 543d ab75 a0bd
000000a0: 720b 26bb d3b7 1dbd 483d 283d ceba 7d3d
000000b0: 5ce3 1eba 5f83 3ebd 79f7 3dbd ea94 9c3d
000000c0: ba53 443d 89f9 993c ac75 95bd d8f4 8dbc
000000d0: c203 cdbb 5388 adbd 3f32 503c 10fc 903c
000000e0: 8c0c c3bd 96ce 3e3d 992b 19bd 3e05 8a3b
000000f0: 60a5 373d 0d91 e23d f786 20ba f23e 1f3c
0.015426982 0.053213857 -0.012701107 -0.038084045 -0.020773359 0.25676334 -0.05194402 0.0719809
0.111065835 -0.08963312 0.06379535 0.022264529 -0.06570722 0.040838636 0.05561625 -0.029821103
0.042532984 -0.090595774 -0.11411957 0.051315244 0.017845357 0.02731749 0.17375658 0.0070788576
-0.10412499 -0.08775425 0.039159413 -0.101355314 0.06557393 -0.0034711715 0.00258089 -0.032682713
-0.015239669 0.03826129 -0.0019900142 0.03677869 0.1774959 -0.009737395 0.05193902 -0.078349434
-0.0025336412 -0.038505387 0.041074067 0.06194573 -0.0006061101 -0.046512004 -0.046378586 0.076455906
0.04793141 0.018795745 -0.07297835 -0.017328665 -0.0062565515 -0.084732674 0.012707292 0.017698318
-0.095238775 0.046583734 -0.037395094 0.0042120507 0.04483545 0.110628225 -0.0006123627 0.009719597

_embedding_layer.cat_embedding_layers.0.weight f4 [4, 2]
00000000: 466e ba3d 9844 45bf 97bf 25be cfec 95bd
00000010: 6735 87bf 011f 9f3f 6a14 54bf 162e a33e
0.09103064 -0.7705779 -0.16186367 -0.07320558 -1.0563172 1.2431337 -0.8284365 0.31871098

_embedding_layer.cat_embedding_layers.1.weight f4 [4, 2]
00000000: 555b 523f 0155 163f 7cbc dbbe 3a05 90be
00000010: d34c 843f 7a7c a7be d86c bebe 83c4 7e3c
0.8217061 0.58723456 -0.4291724 -0.28128988 1.0335945 -0.32712156 -0.37192416 0.015549782

_embedding_layer.cat_embedding_layers.2.weight f4 [4, 2]
00000000: 143e 1f3e fac1 a23e 4d80 1f3f 50b4 1abf
00000010: 6e7a f03e 604b 313f 631b 3d3f bb47 2d3f
0.15551025 0.31788617 0.62305146 -0.60431385 0.46968406 0.6925564 0.73869914 0.67687577

_embedding_layer.cat_embedding_layers.3.weight f4 [4, 2]
00000000: 68b7 efbe 4698 f4bf 7a14 9fbe 5ee1 433d
00000010: 53b8 1bbf 9bb3 aa3d bb15 c2be 2192 0c3e
-0.46819615 -1.910897 -0.3107031 0.04782235 -0.6082813 0.08335038 -0.37907204 0.13727619

_embedding_layer.normalizing_batch_norm.bn.weight f4 [8]
00000000: 0653 5b3f 320d 803f b521 8b3f c1ad 733f
00000010: 656a 6b3f da36 6a3f 2fac 6b3f a058 703f
0.8567356 1.0004027 1.0869662 0.95187 0.9195922 0.91489947 0.92059606 0.9388523

_embedding_layer.normalizing_batch_norm.bn.bias f4 [8]
00000000: 932a f23b 596a a13c 4887 e5bc c539 c9bc
00000010: dad9 2cbb a8ab 46bb 87c1 1f3d 093a 8dbc
0.007390329 0.01970403 -0.028018609 -0.02456368 -0.0026374967 -0.0030314717 0.03900292 -0.017239587

_embedding_layer.normalizing_batch_norm.bn.running_mean f4 [8]
00000000: 25db 02bc 885d 913b 007c 343c 25d3 763b
00000010: ebd4 05bc 9fb6 fd3b 3e9a 50bb bbfb 823b
-0.007986818 0.0044361986 0.011015892 0.0037662473 -0.008168439 0.0077427174 -0.0031830217 0.0039972938

_embedding_layer.normalizing_batch_norm.bn.running_var f4 [8]
00000000: 5f98 803f f204 803f 9cd0 7e3f ea1e 803f
00000010: b1ec 7f3f 0206 803f 6cfb 7f3f 7707 803f
1.00465 1.0001509 0.9953706 1.0009434 0.9997054 1.0001833 0.99993014 1.0002278

head.layers.0.weight f4 [1, 64]
00000000: 91e1 0c3e 4980 583e 89dd ca3b f684 f7bc
00000010: ec8a 87bc 5b14 083c afcc 7a3e d98d 303c
00000020: d427 dd3b 7aee a7be f8ae 55be 61f6 adbe
00000030: d9f5 36be 7622 40bd 9509 0f3e 7e6c 77be
00000040: 91d7 73be e524 cb3e 204f b0bd a8f9 ff3d
00000050: 3599 843c 434f b6bd c955 063c 84e8 7e3e
00000060: 1187 49be 7752 8fbd 0f6e c3bd 7481 f8bd
00000070: 382e bf3b e3a4 ddbe d64a 57be 38c1 eabd
00000080: 1b67 4ebe 6e23 773e a95d 933a e464 2f3e
00000090: 7e8c 8c3c 0fe4 bb3b a05c 613c 6c4f 943e
000000a0: 2299 ee3b a15b 25be 45de e8bd 3337 cb3b
000000b0: bed4 1bbb 566a f83c a737 8b3c c3af 3f3e
000000c0: 923c 783e 1328 a53c a1e3 8dbd 3405 29bd
000000d0: 8a70 adbd d20d 85bc c300 00be 2f54 5c3c
000000e0: d072 c43e 2f9a a4bb e604 2ebe 4cb5 083e
000000f0: b52c 87bc 91d6 ed3b 2bf9 2d3e aa8c 513d
0.13757922 0.21142687 0.00619096 -0.030214768 -0.016545735 0.008305634 0.24492143 0.010776007
0.0067491326 -0.3279913 -0.20867527 -0.33977035 -0.17867221 -0.046907865 0.13968499 -0.2416248
-0.23812701 0.39676586 -0.08608842 0.1249879 0.016186336 -0.08901837 0.008199164 0.24893385
-0.1968043 -0.06998151 -0.095424764 -0.12134066 0.005834367 -0.4328986 -0.21024641 -0.11462635
-0.20156519 0.24134609 0.0011243123 0.1712833 0.017156836 0.005733974 0.013754994 0.28966844
0.0072814384 -0.16148235 -0.113705195 0.0062016486 -0.0023777927 0.030324142 0.01699431 0.18719392
0.24241856 0.02016071 -0.069281824 -0.041264728 -0.08468731 -0.016241942 -0.1250029 0.013447805
0.38368845 -0.005023263 -0.16994056 0.1335041 -0.01650081 0.0072582443 0.16989581 0.05115954

exp_avg f4 [256, 16]
00000000: 8b4d a635 3ae6 1bb6 958d ca35 3aa1 28b6
00000010: 6883 5eb5 4355 8434 a983 9fb5 8f01 d0b4
00000020: 1c2f 3f34 a07c 9934 d407 9a36 3165 38b5
00000030: b4be a034 e44b 36b6 f87a 6bb4 be78 7931
00000040: 63de 0bb4 b18d 3db6 62db cf36 4d06 26b5
00000050: 9460 1335 8e4b 5536 2510 7f35 d562 90b6
00000060: 27ef 5236 ff43 7bb6 ad5b f335 dd51 3335
00000070: 3c82 00b6 4970 0136 5567 9f35 cc38 4cb4
00000080: f9fc 4036 c496 1236 5581 7036 1784 2eb6
00000090: fe97 45b6 7c71 92b6 768b 69b6 4853 f035
000000a0: 826e 1936 ad06 e4b4 bd48 9536 fe04 44b5
000000b0: efbf efb5 d2b3 1936 b8ff 2035 9026 a4b4
000000c0: df8f 4e36 3fae 8db6 f013 e6b5 3665 d4b5
000000d0: 5b39 9db5 2c15 8036 d984 2bb6 6b7a 9b35
000000e0: 0bcd b6b6 396f a636 c237 2ab5 ef8f 2db5
000000f0: db5b 2736 a203 5c34 3411 fab5 fa97 2335
00000100: 418f b835 459e 6236 8b8b dcb6 255d bb36
00000110: 57f2 3fb6 0664 4b36 b9d3 ac35 7020 acb6
00000120: fb92 edb4 d22a a335 a829 8b36 792e 32b5
00000130: 8d04 c134 ef16 1336 0ccd 4f34 d8e5 a833
00000140: 85dc 88b6 7f0f e034 1c1c 9eb5 9d33 8235
00000150: df7a 3c36 84d8 01b7 7abc 1936 f766 1837
00000160: 20e4 46b3 b092 d3b3 9ba1 f735 f084 1ab3
00000170: 373e 8a35 23fa 58b5 1fd0 1a35 06b0 9534
00000180: 2c5b 4435 626c 8f35 2ec9 1135 d216 73b5
00000190: 79b6 87b6 ef66 d6b5 9e9d 2035 dc86 f6b4
000001a0: f9e4 ecb4 addd 9ab5 943b e9b5 7b2d 0535
000001b0: b531 f235 9e11 ac35 6b3e 9eb5 d129 b634
000001c0: 023a d132 cf7e 5ab4 41b0 0fb6 b65f af34
000001d0: 9feb 7033 8789 01b5 0db0 c435 3387 ccb5
000001e0: 3980 45b4 5148 6fb5 33df 6435 bcca d9b4
000001f0: 954e 3735 5d82 9b35 0ac4 a8b4 84ff 9933
00000200: 4d83 1ab7 875a 20b7 d11e d7b6 f1e9 cab5
00000210: a732 b2b5 e48b e434 c63c 9bb6 1d8a 3437
00000220: c1d1 0db7 5f25 c336 9443 03b7 6910 f8b4
00000230: 2686 d436 a6c7 4a36 09b1 7db6 5c90 bf35
00000240: a2d5 81b6 1c10 fc35 2872 62b5 4392 0137
00000250: 47f0 3537 aa0c d536 371f e1b6 20e5 8c36
00000260: 8995 00b7 6836 e636 4409 2bb6 aca8 9fb5
00000270: 428b a136 0fd0 c9b6 dae0 19b6 0a5a 9935
00000280: 83c9 9bb6 43d1 91b6 7d55 cbb6 d0d8 3035
00000290: 526b 5b36 c2c8 4136 ad52 9c35 e3d9 9335
000002a0: 8a1b 0a36 e0cb 14b6 f932 1735 6534 dd34
000002b0: 3479 07b6 6767 c0b4 2975 4535 a96c 76b4
000002c0: e2a8 9e34 4fc2 8435 aa87 90b6 4b80 f636
000002d0: 03ce a235 ef6a 6fb5 339d c7b5 af2d a7b6
000002e0: b26a 7536 ae83 78b6 76d1 8a35 d979 f534
000002f0: 87a3 07b6 0905 3e32 5f3c 1036 e6a5 7ab4
00000300: b001 b8b5 4fd0 8fb6 1aa0 56b6 1e56 9435
00000310: f870 df35 c9d3 d2b6 9ddb 1434 cec9 9135
00000320: 8f81 83b5 0933 a135 d9bb 5735 ed50 efb4
00000330: 7137 8f34 9850 52b6 daf3 adb4 6ee7 8733
00000340: 968a c6b6 1128 3936 3a77 81b6 2f51 8db6
00000350: d462 85b5 96f0 18b4 f32c 43b6 911a 7336
00000360: c02e acb5 a2d6 0cb6 1b0e 0bb6 7627 4eb4
00000370: 3f83 0a36 e8a6 7d34 8cb8 10b6 50ed e234
00000380: ca29 3b35 1d48 b9b5 6172 db35 e9dd 34b6
00000390: c824 5635 44b7 7b36 c21f e0b5 33aa feb5
000003a0: d7f5 1d36 8a9b e3b5 fa26 7335 8ba3 8a35
000003b0: e4f3 26b6 ef66 8fb5 8084 1336 dec5 b1b4
000003c0: 056f 8d36 b845 a536 0166 7c36 b8cf 05b6
000003d0: d2eb de36 6b8c 0237 0997 c734 3fa6 e8b5
000003e0: a5bc 8e36 47a9 11b6 de9f 0a36 90f1 9d35
000003f0: 0a85 aab6 d95b 66b6 aac2 6a36 a863 89b5
1.2390532e-06 -2.323081e-06 1.5091379e-06 -2.5127797e-06 -8.2892666e-07 2.4648952e-07 -1.1884741e-06 -3.8744153e-07
1.78054e-07 2.8589147e-07 4.590469e-06 -6.8692594e-07 2.9941077e-07 -2.7164288e-06 -2.1930816e-07 3.6302903e-09
-1.3026288e-07 -2.824567e-06 6.1946203e-06 -6.184899e-07 5.4902307e-07 3.1783452e-06 9.5018396e-07 -4.30304e-06
3.1431643e-06 -3.7441494e-06 1.8131592e-06 6.6801823e-07 -1.9149293e-06 1.9287857e-06 1.1876497e-06 -1.9019643e-07
2.875748e-06 2.1843452e-06 3.5838068e-06 -2.6004907e-06 -2.9443759e-06 -4.3643504e-06 -3.4800883e-06 1.7905631e-06
2.28631e-06 -4.2473167e-07 4.449014e-06 -7.3022954e-07 -1.7862748e-06 2.2903446e-06 5.9976765e-07 -3.0575438e-07
3.0780136e-06 -4.2224124e-06 -1.7142138e-06 -1.5824687e-06 -1.1714104e-06 3.817162e-06 -2.5558313e-06 1.1584028e-06
-5.447893e-06 4.9601335e-06 -6.3411073e-07 -6.4656973e-07 2.4938406e-06 2.0490418e-07 -1.8631458e-06 6.0943387e-07
1.3750761e-06 3.376875e-06 -6.572756e-06 5.5838777e-06 -2.8602278e-06 3.0307579e-06 1.2876618e-06 -5.1297757e-06
-4.4251632e-07 1.2156909e-06 4.1473722e-06 -6.6377794e-07 3.5952363e-07 2.1918056e-06 1.9352973e-07 7.864918e-08
-4.0787877e-06 4.1734526e-07 -1.1780098e-06 9.700776e-07 2.8085703e-06 -7.739411e-06 2.2908484e-06 9.083879e-06
-4.6307946e-08 -9.8521355e-08 1.8449967e-06 -3.5976825e-08 1.0299908e-06 -8.083027e-07 5.7672327e-07 2.7881487e-07
7.314836e-07 1.0685874e-06 5.4309464e-07 -9.055776e-07 -4.044556e-06 -1.59742e-06 5.983401e-07 -4.5919194e-07
-4.4125025e-07 -1.153841e-06 -1.7377192e-06 4.9612544e-07 1.8044872e-06 1.2820126e-06 -1.1790083e-06 3.3930567e-07
2.4357181e-08 -2.0348965e-07 -2.1411254e-06 3.266593e-07 5.609365e-08 -4.8256373e-07 1.4654375e-06 -1.5238533e-06
-1.8393702e-07 -8.913967e-07 8.5261416e-07 -4.0566908e-07 6.8287164e-07 1.1586341e-06 -3.1435076e-07 7.171096e-08
-9.209686e-06 -9.557821e-06 -6.411087e-06 -1.5118259e-06 -1.3276775e-06 4.2570093e-07 -4.626435e-06 1.0760993e-05
-8.453092e-06 5.8158034e-06 -7.823943e-06 -4.620554e-07 6.3337093e-06 3.0216556e-06 -3.7802986e-06 1.4272623e-06
-3.8693697e-06 1.8780152e-06 -8.435768e-07 7.723053e-06 1.0844385e-05 6.349369e-06 -6.7091564e-06 4.198999e-06
-7.664211e-06 6.860868e-06 -2.548638e-06 -1.1895513e-06 4.8143856e-06 -6.014488e-06 -2.2929657e-06 1.1425593e-06
-4.642819e-06 -4.345698e-06 -6.0598236e-06 6.5880613e-07 3.2696012e-06 2.8876098e-06 1.1646968e-06 1.1015767e-06
2.0579632e-06 -2.217239e-06 5.632606e-07 4.120258e-07 -2.0187117e-06 -3.5838022e-07 7.355871e-07 -2.2950066e-07
2.9552672e-07 9.891318e-07 -4.307328e-06 7.3463066e-06 1.2129898e-06 -8.9190047e-07 -1.4872406e-06 -4.982306e-06
3.656995e-06 -3.7031527e-06 1.0342762e-06 4.5723462e-07 -2.0211753e-06 1.10606e-08 2.1492813e-06 -2.3343418e-07
-1.3709559e-06 -4.2859824e-06 -3.1981676e-06 1.1051923e-06 1.6647673e-06 -6.2831427e-06 1.3863469e-07 1.0862075e-06
-9.797967e-07 1.2010288e-06 8.0367096e-07 -4.45761e-07 2.6676165e-07 -3.133935e-06 -3.2401186e-07 6.328524e-08
-5.9169934e-06 2.759047e-06 -3.8583794e-06 -4.2115785e-06 -9.938035e-07 -1.4243628e-07 -2.9083428e-06 3.6225285e-06
-1.2828605e-06 -2.0986558e-06 -2.0720825e-06 -1.9199601e-07 2.0639998e-06 2.3623181e-07 -2.1565093e-06 4.2268448e-07
6.972374e-07 -1.3804562e-06 1.635006e-06 -2.6951259e-06 7.9774736e-07 3.750859e-06 -1.6698543e-06 -1.8974009e-06
2.353792e-06 -1.6958086e-06 9.058127e-07 1.0329398e-06 -2.487789e-06 -1.0684288e-06 2.1981832e-06 -3.3112786e-07
4.215052e-06 4.9254995e-06 3.76103e-06 -1.9939453e-06 6.6435687e-06 7.781297e-06 3.717653e-07 -1.7333731e-06
4.253891e-06 -2.1705216e-06 2.0656657e-06 1.1767715e-06 -5.0818826e-06 -3.4326133e-06 3.4982027e-06 -1.0236299e-06

exp_avg_sq f4 [256, 16]
00000000: 0754 7933 fff7 f133 da62 d733 c3c6 1033
00000010: b23c 8134 676a 3234 1eeb 9433 047d 1234
00000020: 1e36 5a34 0c15 6134 23fc c432 39e3 1b32
00000030: 81ae 9b33 efdd df32 4e27 2c33 d55d b931
00000040: 0844 7531 8c20 ce32 ee3e c731 17c1 cc31
00000050: a749 0332 f6eb cf31 07c7 1933 7dd4 2233
00000060: 8dae 7c32 030b 1c32 5449 8c31 bfba 2d31
00000070: b45f b732 d21b 6e31 0721 2f32 e35e 3f30
00000080: fbf6 3d33 f524 2e34 d62f dc33 2584 3333
00000090: b3af b533 e15b 2833 2799 1334 8827 1634
000000a0: 0f7e 6d34 2b24 e133 062d a331 cbc4 b032
000000b0: 0dfc 4834 18fe 9332 94ed bd33 d393 c531
000000c0: 2c8d d233 cd4c 1734 8ed6 2a34 5a1d 2033
000000d0: 1412 1434 5a51 2633 abfe af33 5317 d334
000000e0: 07dd 3a35 197a 1f35 14ea 2332 5293 3e33
000000f0: 7457 b734 8da7 e033 6716 3134 004f 5732
00000100: c5de 9631 6334 9432 0552 5f32 786d 8931
00000110: 27fe e731 4255 8131 28f6 ab31 0c00 db31
00000120: 7817 4f32 d1c8 2532 a464 f930 db69 2030
00000130: 5b8b e231 1802 2131 6b2b 5b31 24ba 8e2f
00000140: 6f46 b733 2a3e d034 7aaa c334 de09 2833
00000150: 947c 0335 7b96 0833 2464 9e34 5e05 2735
00000160: 5bf4 0935 036b cb34 c767 d632 c73b 0f33
00000170: f405 d334 b871 8633 3e3d 5934 cb78 9e32
00000180: a51d 3533 a732 2a33 cd49 0933 b615 ca32
00000190: 241a 0034 148b 4533 2b20 b332 9a4f 1934
000001a0: e54b ca33 f760 b133 4b00 a430 df74 7d31
000001b0: 8324 6133 ae69 a632 e8da d232 f10e 8031
000001c0: a6d5 9032 3347 5132 61e6 3332 72f8 1a33
000001d0: 5733 1332 845c b232 1c16 6732 e27b 1333
000001e0: b1ce b732 4d9f 6f32 f15f f230 25af f930
000001f0: 10af b232 dd20 6731 2a1a 3232 199b ac30
00000200: 7db6 3233 d92f dd32 81d3 d133 b6d1 3d33
00000210: c4ae d433 3bf1 dc32 bd4a ea32 bf30 1434
00000220: 3e37 2234 f909 1034 9235 9031 1bb2 b731
00000230: d5f1 9933 51db 2c33 d936 1b33 ed23 0731
00000240: 4d2d 5a33 94ce 4533 82fb a233 b58b b633
00000250: ee65 5e33 fd4d 4933 a2e3 2133 b6c9 9c33
00000260: 0ee6 1234 6034 1834 de88 9632 dd7a d031
00000270: cbcb 7133 9d95 c731 19e8 df32 87e8 bc30
00000280: 3008 6a31 93f9 0232 0792 6232 94d0 5d32
00000290: f6d5 7831 2ef8 1132 f699 0433 7ef4 cd32
000002a0: 798b 7632 920f 9f32 1543 1831 858c 0430
000002b0: 6f59 c631 69fc b231 91ea 6d31 894b 0930
000002c0: 98f3 2b32 be26 0f32 2253 ae31 73d1 6d32
000002d0: d7eb 6d32 ac6c 2732 7efd ac32 9ab5 4033
000002e0: bbb7 8831 41c6 8d30 4073 6030 f808 2d30
000002f0: 536e 3032 4508 2a31 8e74 da31 d580 fc2f
00000300: 0e62 0733 1068 f332 9733 2133 2e34 0933
00000310: 3b1e b933 3c10 9f32 4422 8133 1cf4 c933
00000320: 7566 2333 4e12 6332 258e af31 38da 6d31
00000330: 1b1d 2533 e5ac dc32 9c69 e232 c04e fa30
00000340: 87c8 6932 7ca9 d532 5768 b032 466d 2533
00000350: fc2a 3e32 576e 4232 f9ad 0733 13fa 2533
00000360: 6084 6e32 7258 4431 e4fe a930 eef3 0e31
00000370: 9f1a bb32 52b8 b331 cc11 2a32 12a9 6330
00000380: 7895 3b32 eb3e 0f33 2f91 4333 a690 ad32
00000390: 2c16 e432 41a3 d332 5870 9f32 7044 ad32
000003a0: d1b2 1d33 c44b 0b33 91d1 3f31 4d95 dd30
000003b0: 8874 9132 1483 4731 7ce7 2032 595b 6c30
000003c0: 0aee e732 8f00 4533 03f0 bc32 b042 5332
000003d0: 43f6 3833 7dd9 2c33 712f 0433 8866 a533
000003e0: c3eb 1733 97a0 0e33 443c c331 0ef0 9e30
000003f0: 4d86 5232 295d 9a31 e0e4 d631 2c6e 6e30
5.8051253e-08 1.1267547e-07 1.0029699e-07 3.3708385e-08 2.4072284e-07 1.6616251e-07 6.9345546e-08 1.364279e-07
2.032252e-07 2.0962415e-07 2.2932062e-08 9.073852e-09 7.249492e-08 2.606154e-08 4.0082618e-08 5.394876e-09
3.5690864e-09 2.3996357e-08 5.7988165e-09 5.959133e-09 7.64195e-09 6.0513186e-09 3.5804103e-08 3.791182e-08
1.4708019e-08 9.082899e-09 4.0828727e-09 2.5280966e-09 2.1347525e-08 3.4649372e-09 1.019385e-08 6.962024e-10
4.422962e-08 1.6218458e-07 1.02532496e-07 4.179687e-08 8.460429e-08 3.919911e-08 1.3746158e-07 1.398422e-07
2.2118205e-07 1.0483958e-07 4.749043e-09 2.0578588e-08 1.8718147e-07 1.72286e-08 8.8442135e-08 5.7502603e-09
9.804566e-08 1.4090911e-07 1.5910538e-07 3.7279598e-08 1.3790151e-07 3.8723876e-08 8.1953964e-08 3.9318783e-07
6.9612037e-07 5.940979e-07 9.541072e-09 4.437181e-08 3.4150037e-07 1.046129e-07 1.649256e-07 1.253261e-08
4.3909005e-09 1.725329e-08 1.29989575e-08 3.99967e-09 6.7518786e-09 3.764087e-09 5.0047397e-09 6.373744e-09
1.2054322e-08 9.649924e-09 1.8145738e-09 5.835809e-10 6.5933086e-09 2.3429774e-09 3.1893375e-09 2.596191e-10
8.534413e-08 3.878825e-07 3.6445618e-07 3.9124522e-08 4.898259e-07 3.180183e-08 2.9502655e-07 6.222016e-07
5.139206e-07 3.7889558e-07 2.4960071e-08 3.334915e-08 3.9306144e-07 6.2605466e-08 2.023198e-07 1.8448551e-08
4.2169308e-08 3.9627277e-08 3.196492e-08 2.3525768e-08 1.1930439e-07 4.5994128e-08 2.0852971e-08 1.4278194e-07
9.420163e-08 8.2598426e-08 1.1932654e-09 3.688278e-09 5.2420102e-08 1.9373001e-08 2.4546765e-08 3.726989e-09
1.6860962e-08 1.218159e-08 1.0471553e-08 3.608188e-08 8.5681995e-09 2.0763999e-08 1.3450997e-08 3.4338775e-08
2.1397996e-08 1.3947852e-08 1.7635086e-09 1.8166914e-09 2.0801536e-08 3.3633605e-09 1.0366913e-08 1.2558729e-09
4.1609827e-08 2.5749545e-08 9.770793e-08 4.4195723e-08 9.903809e-08 2.572107e-08 2.7275172e-08 1.3801308e-07
1.5107523e-07 1.3414673e-07 4.197042e-09 5.346249e-09 7.168607e-08 4.0246338e-08 3.6138633e-08 1.9665507e-09
5.079828e-08 4.605552e-08 7.589462e-08 8.500448e-08 5.1781107e-08 4.686989e-08 3.7692764e-08 7.301007e-08
1.3681003e-07 1.4175157e-07 1.7524538e-08 6.0675647e-09 5.6297534e-08 5.8086713e-09 2.6066163e-08 1.3744889e-09
3.4056136e-09 7.6237425e-09 1.3188134e-08 1.2911318e-08 3.6210372e-09 8.49654e-09 3.087367e-08 2.3976323e-08
1.4350797e-08 1.8517117e-08 2.2157043e-09 4.822101e-10 5.772726e-09 5.2091775e-09 3.4621375e-09 4.994765e-10
1.0008897e-08 8.3325045e-09 5.0735176e-09 1.3842839e-08 1.3848839e-08 9.7453885e-09 2.013871e-08 4.486865e-08
3.9790087e-09 1.0315447e-09 8.1654505e-10 6.294978e-10 1.0269633e-08 2.4742957e-09 6.3578858e-09 4.5930074e-10
3.1521317e-08 2.8336245e-08 3.7532654e-08 3.1945255e-08 8.620233e-08 1.8517419e-08 6.0132635e-08 9.404195e-08
3.804458e-08 1.3217301e-08 5.1093303e-09 3.4612082e-09 3.8443527e-08 2.5689994e-08 2.6357888e-08 1.8212276e-09
1.360798e-08 2.4873536e-08 2.0536545e-08 3.851644e-08 1.1069229e-08 1.1317375e-08 3.1590364e-08 3.8644497e-08
1.3883522e-08 2.857203e-09 1.2368813e-09 2.0802378e-09 2.1781771e-08 5.2305404e-09 9.899349e-09 8.282238e-10
1.0918818e-08 3.3352006e-08 4.553402e-08 2.020563e-08 2.6552776e-08 2.4637872e-08 1.8561124e-08 2.0170972e-08
3.6717044e-08 3.2432368e-08 2.7913283e-09 1.61223e-09 1.6933214e-08 2.903282e-09 9.365859e-09 8.598611e-10
2.7000187e-08 4.5868145e-08 2.1995225e-08 1.2296979e-08 4.3064812e-08 4.0244675e-08 3.0776793e-08 7.7020616e-08
3.537185e-08 3.3208007e-08 5.6820983e-09 1.1564241e-09 1.2254145e-08 4.492581e-09 6.25424e-09 8.674046e-10
